models/armoridentify_with_base.onnx (onnx, 348888 bytes, 10 tensors)

conv1.weight f4 [6, 1, 5, 5]
-0.07662856 0.17426078 0.020701664 0.0108628 0.18678278 0.11555601 0.12775795 0.22025545
0.2706597 -0.15205325 0.06264827 -0.14029399 -0.004906232 0.07449878 0.087080956 -0.15753767
0.107097924 -0.0020978756 -0.1239034 0.10631142 -0.21652147 -0.27018708 0.033154584 -0.22027555
-0.19420496 0.16010514 0.2491607 0.21358265 0.26104075 -0.00024906907 0.025009219 -0.12669855
-0.016560962 0.13453384 0.16411248 -0.08943425 0.18498972 0.07379802 0.21748306 0.12967935
-0.021768156 -0.00566976 -0.017869545 -0.08957764 0.22166151 0.15488586 0.07442896 0.1843364
-0.12552354 0.09176563 -0.06262339 -0.29146597 -0.1482428 -0.106714316 -0.07070848 -0.019458115
-0.009893149 0.03405155 0.015931392 -0.055768184 -0.075319745 -0.24113576 0.07450935 0.060205575
-0.18531002 -0.16093247 -0.2431892 -0.14062108 -0.23313002 -0.062018678 0.09996168 -0.019280672
-0.23199396 -0.272845 -0.17045973 0.07710885 -0.18839704 0.09296519 -0.046081554 0.058290638
-0.22445554 -0.16777074 0.14420515 0.122771405 0.1525137 -0.05178748 -0.17330538 0.19623351
0.19687833 -0.14106826 -0.1262369 0.113942 0.21624175 0.014945599 0.07322695 -0.08949345
-0.011574572 0.2395147 0.11905833 0.12468399 -0.06998287 -0.07089829 -0.07651335 -0.004003707
-0.0051906235 -0.24908933 -0.24751349 -0.017194627 -0.26787862 -0.17692614 -0.032014716 0.11865715
-0.06577161 0.0011638498 -0.19730987 0.18389276 0.20503333 0.24029458 0.2006716 0.2579998
0.1684879 -0.005508201 -0.08054487 0.039399903 0.04380003 -0.18305394 0.17782147 0.13608079
0.19495153 0.2707802 0.16059123 0.124932244 0.03971564 0.2947743 0.2475736 -0.1232368
-0.019020526 -0.11251846 -0.030430727 0.270756 -0.22332266 -0.07841174 -0.070341244 0.050621726
0.002243147 -0.26755625 -0.2373582 0.19812486 0.21559106 -0.16468145
00000000: 6fef 9cbd 6b71 323e 8996 a93c e3f9 313c
00000010: fc43 3f3e a1a8 ec3d fbd2 023e a58a 613e
00000020: e893 8a3e d9b3 1bbe bc4d 803d 3aa9 0fbe
00000030: 75c4 a0bb d192 983d 8057 b23d 8e51 21be
00000040: 2856 db3d 837c 09bb 11c1 fdbd cdb9 d93d
00000050: ceb7 5dbe f655 8abe 1acd 073d ea8f 61be
00000060: aadd 46be 9af2 233e fc23 7f3e 69b5 5a3e
00000070: 22a7 853e 7c95 82b9 22e0 cc3c 44bd 01be
00000080: dbaa 87bc 3dc3 093e 1a0d 283e 4e29 b7bd
00000090: f26d 3d3e 6b23 973d e1b3 5e3e aaca 043e
000000a0: 2253 b2bc 65c9 b9bb 2763 92bc 7b74 b7bd
000000b0: 3cfb 623e 669a 1e3e 366e 983d aec2 3c3e
000000c0: 3e89 00be 9eef bb3d b140 80bd 073b 95be
000000d0: f6cc 17be 098d dabd 9ccf 90bd a066 9fbc
000000e0: e016 22bc a379 0b3d 8d82 823c 2e6d 64bd
000000f0: 3d41 9abd 4bec 76be 5c98 983d 1f9a 763d
00000100: e9c1 3dbe 7bcb 24be 9706 79be f9fe 0fbe
00000110: a3b9 6ebe 4c07 7ebd b6b8 cc3d 80f2 9dbc
00000120: d38f 6dbe 57b2 8bbe ff8c 2ebe 3feb 9d3d
00000130: 27eb 40be 8964 be3d 03c0 3cbd 2ac2 6e3d
00000140: acd7 65be 18cc 2bbe 84aa 133e 936f fb3d
00000150: 8d2c 1c3e 1c1f 54bd f776 31be 70f1 483e
00000160: 799a 493e 3374 10be 3f44 01be 6c5a e93d
00000170: 7a6e 5d3e 63de 743c 03f8 953d 5848 b7bd
00000180: 46a3 3dbc 5743 753e dbd4 f33d 525a ff3d
00000190: 2e53 8fbd 1f33 91bd 08b3 9cbd 8731 83bb
000001a0: 1b16 aabb 4611 7fbe 2d74 7dbe bfdb 8cbc
000001b0: 6327 89be 202c 35be dd21 03bd 8502 f33d
000001c0: 44b3 86bd 528c 983a 990b 4abe 624e 3c3e
000001d0: 42f4 513e c80f 763e db7c 4d3e 8d18 843e
000001e0: 1888 2c3e 247e b4bb b5f4 a4bd cb61 213d
000001f0: a967 333d 7e72 3bbe d516 363e c358 0b3e
00000200: 60a1 473e b4a3 8a3e 0772 243e 7adc ff3d
00000210: deac 223d a8ec 963e ef83 7d3e 9363 fcbd
00000220: efd0 9bbc 1470 e6bd dc49 f9bc 88a0 8a3e
00000230: b2ae 64be 5696 a0bd 120f 90bd ba58 4f3d
00000240: c301 133b 22fd 88be 070e 73be 3ee1 4a3e
00000250: e7c3 5c3e 41a2 28be

conv1.bias f4 [6]
0.02365091 -0.30936235 0.18523437 0.13337108 -0.0064338436 -0.053183213
00000000: 8ebf c13c be64 9ebe 14ae 3d3e 6e92 083e
00000010: fed2 d2bb a4d6 59bd

conv2.weight f4 [16, 6, 5, 5]
-0.008020755 -0.020430591 -0.16040495 -0.29813245 -0.21901523 0.00828275 -0.008982637 -0.011381958
-0.11108364 -0.10390823 -0.017954256 0.01824274 -0.06449818 0.05738033 -0.0050822967 -0.15404297
-0.17824614 -0.11007403 0.05326882 0.17934461 -0.3678925 -0.45343477 -0.36437783 -0.03500303
0.14460097 0.08350646 0.026437702 0.044133984 -0.009911674 0.09173977 0.020958448 -0.026490182
-0.0852485 -0.010083751 0.17336674 0.0379181 -0.030473836 0.022751931 0.016084312 0.1786911
-0.11707073 -0.046591617 0.051832605 0.06781999 0.26288468 -0.10463373 -0.080734275 -0.009525977
0.12499123 0.30882868 0.10365548 0.059880737 0.16727388 0.123798504 0.055552214 0.054655112
0.18348338 0.18642397 0.0672043 -0.106950425 0.12924135 0.13716936 0.12824175 0.03358621
-0.12034449 0.1286426 0.07241138 0.051369037 0.030406782 -0.053343736 0.002101255 0.07206433
0.05275363 -0.06640737 -0.18511038 -0.0012625091 -0.07782045 -0.042240776 0.031099549 0.049974144
-0.096734814 -0.06500399 -0.11300129 0.0993767 0.16770351 -0.07364351 -0.19068937 -0.053147204
0.07776596 0.115906894 -0.08384833 -0.15900333 0.0041262046 0.078442305 0.25574905 -0.05640038
0.03268437 0.09844835 0.21395092 0.2781464 0.018594468 -0.13655683 -0.076975316 -0.13966222
0.025538515 -0.18099178 -0.2145868 -0.16682994 -0.07345645 0.13554227 -0.23944546 -0.39077476
-0.43230626 -0.16049051 -0.06734534 -0.30198622 -0.28364426 -0.291476 -0.26584724 -0.19562143
-0.1287761 0.022100294 -0.008365567 0.025218533 -0.11308574 0.04026014 -0.018596692 -0.16486625
-0.12978517 0.0434548 -0.08097572 -0.08704106 -0.091442235 0.057572123 0.1090304 0.0009835305
-0.09141963 0.021803148 0.0914578 0.25106302 -0.13694826 -0.19074605 -0.025668992 0.25928152
0.3176378 -0.21542358 -0.2539544 0.037491713 0.19023538 0.27608693 0.051204413 0.20449156
0.13839543 0.15042207 -0.076511696 0.20272939 0.21852665 0.12806001 0.00017745889 -0.103800595
0.084951445 0.03079063 0.00925511 -0.056307573 -0.04657942 -0.024845678 -0.07975495 0.0009030831
0.051992536 -0.09169455 -0.13898729 -0.068122156 -0.078323886 0.08827698 -0.084165454 0.20335804
0.21844748 0.12213139 0.03906391 0.085933015 0.1130937 0.09434943 0.067019686 0.08332115
-0.031311966 0.076934494 -0.024453515 0.07965858 0.011397785 0.048249885 0.027210062 -0.049234074
-0.01751196 -0.047366217 0.06149392 0.04928237 -0.060209356 0.026482278 0.006153097 -0.025309397
-0.118884355 0.011894345 -0.057652272 -0.087376624 -0.1158009 -0.12187637 -0.08893317 0.0003003649
-0.039800193 -0.05742713 -0.033059034 -0.013652984 -0.069692746 -0.034334123 -0.08102611 0.044539034
0.030112322 0.012181028 -0.09325271 -0.01735618 -0.031598773 0.003934683 -0.0708681 -0.033602282
-0.09050738 0.08487654 0.04392786 0.059934035 0.04711521 -0.07061213 -0.053330943 -0.114957005
0.023021286 -0.11096061 -0.11768544 0.02500424 -0.07647175 -0.1010887 0.04505001 0.016660858
-0.041611023 -0.14154395 0.016497986 0.04711271 0.026429735 0.019747427 -0.06975324 -0.037570797
0.05023702 -0.0833808 -0.13411877 -0.05761368 -0.18981385 -0.18783584 -0.19526038 -0.06791665
00000000: 7c69 03bc 0e5e a7bc 3241 24be d1a4 98be
00000010: 8745 60be 5fb4 073c e92b 13bc 647b 3abc
00000020: d27f e3bd d7cd d4bd ce14 93bc cc71 953c
00000030: 9f17 84bd a307 6b3d 6589 a6bb 71bd 1dbe
00000040: 2886 36be 7e6e e1bd 6830 5a3d 1da6 373e
00000050: 685c bcbe 9a28 e8be bb8f babe 565f 0fbd
00000060: 4712 143e 6f05 ab3d e193 d83c d6c5 343d
00000070: 9364 22bc 0fe2 bb3d 0db1 ab3c f001 d9bc
00000080: c496 aebd 5136 25bc 0d87 313e 0250 1b3d
00000090: 44a4 f9bc 4262 ba3c 3fc3 833c cdfa 363e
000000a0: c7c2 efbd dad6 3ebd 6d4e 543d 35e5 8a3d
000000b0: d298 863e 364a d6bd 0358 a5bd d812 1cbc
000000c0: 67fb ff3d cb1e 9e3e 5349 d43d 8145 753d
000000d0: d849 2b3e 128a fd3d b88a 633d 0ade 5f3d
000000e0: 11e3 3b3e ede5 3e3e 68a2 893d d308 dbbd
000000f0: d857 043e 2076 0c3e ce51 033e b291 093d
00000100: 2c77 f6bd e3ba 033e 6b4c 943d 5768 523d
00000110: a517 f93c f67e 5abd 36b5 093b 7796 933d
00000120: 3114 583d 9600 88bd 938d 3dbe c77a a5ba
00000130: 5460 9fbd aa04 2dbd 7bc4 fe3c b0b1 4c3d
00000140: e71c c6bd d020 85bd 386d e7bd 0386 cb3d
00000150: 78ba 2b3e 69d2 96bd 1344 43be e2b0 59bd
00000160: c243 9f3d 9860 ed3d acb8 abbd c5d1 22be
00000170: 1d35 873b 5ca6 a03d 8af1 823e 1604 67bd
00000180: 0ce0 053d 4a9f c93d f315 5b3e 3469 8e3e
00000190: 6d53 983c 8ed5 0bbe 3ca5 9dbd 9d03 0fbe
000001a0: 2636 d13c e955 39be a4bc 5bbe 78d5 2abe
000001b0: 5670 96bd 98cb 0a3e 3131 75be a113 c8be
000001c0: 3f57 ddbe a057 24be 5bec 89bd f09d 9abe
000001d0: d239 91be 583c 95be 211d 88be fc50 48be
000001e0: e2dd 03be ad0b b53c bb0f 09bc 1997 ce3c
000001f0: 7f99 e7bd d1e7 243d 1758 98bc b3d2 28be
00000200: 67e6 04be a9fd 313d 99d6 a5bd 9542 b2bd
00000210: 1146 bbbd bfd0 6b3d 554b df3d cfe9 803a
00000220: 373a bbbd 849c b23c 3a4e bb3d 558b 803e
00000230: 2a3c 0cbe ef52 43be c747 d2bc 8cc0 843e
00000240: 6ca1 a23e 0098 5cbe 5006 82be e990 193d
00000250: 10cd 423e 445b 8d3e b8bb 513d 3c66 513e
00000260: 88b7 0d3e 3e08 1a3e 2ab2 9cbd 4b98 4f3e
00000270: 73c5 5f3e 2a22 033e 4214 3a39 6895 d4bd
00000280: 06fb ad3d a23c fc3c bfa2 173c c5a2 66bd
00000290: 10ca 3ebd 2a89 cbbc 9056 a3bd e2bc 6c3a
000002a0: 20f6 543d 5aca bbbd af52 0ebe a183 8bbd
000002b0: 4668 a0bd 90ca b43d f05e acbd 173d 503e
000002c0: b2b0 5f3e 0620 fa3d 7a01 203d a6fd af3d
000002d0: ab9d e73d 463a c13d 9e41 893d 47a4 aa3d
000002e0: fa40 00bd d58f 9d3d bd52 c8bc 0a24 a33d
000002f0: c6bd 3a3c aca1 453d a3e7 de3c aba9 49bd
00000300: 3e75 8fbc 1403 42bd 0ce1 7b3d 4fdc 493d
00000310: 169e 76bd 5df1 d83c eb9f c93b a755 cfbc
00000320: a479 f3bd 80e0 423c ca24 6cbd 84f2 b2bd
00000330: 0629 edbd 519a f9bd 9822 b6bd 4b7a 9d39
00000340: 8705 23bd b638 6bbd e968 07bd c4b0 5fbc
00000350: 12bb 8ebd f0a1 0cbd 04f1 a5bd 906e 363d
00000360: 1eae f63c ef92 473c 47fb bebd 8c2e 8ebc
00000370: b76d 01bd 83ee 803b 4b23 91bd 8ca2 09bd
00000380: ef5b b9bd c0d3 ad3d b3ed 333d 647d 753d
00000390: e1fb 403d 189d 90bd 8c71 5abd 946e ebbd
000003a0: 2397 bc3c 513f e3bd 1005 f1bd b1d5 cc3c
000003b0: 399d 9cbd 9807 cfbd 5c86 383d 5a7c 883c
000003c0: 5270 2abd e6f0 10be c926 873c 42f9 403d
000003d0: 2c83 d83c 5bc5 a13c c9da 8ebd d6e3 19bd
000003e0: 55c5 4d3d 8ec3 aabd 6e56 09be 52fc 6bbd
000003f0: 905e 42be 0a58 40be 56f2 47be e217 8bbd

conv2.bias f4 [16]
-0.063195385 -0.08899805 -0.07320595 0.040563 0.08187006 -0.021260742 0.070501484 -0.068901785
-0.087172456 0.025501275 0.042524558 0.042077344 0.04080443 -0.0009821218 -0.018964771 0.01718338
00000000: 956c 81bd 9c44 b6bd 00ed 95bd 6325 263d
00000010: 7dab a73d 022b aebc 1563 903d 611c 8dbd
00000020: 7987 b2bd 0de8 d03c 3b2e 2e3d 4b59 2c3d
00000030: 8c22 273d 8aba 80ba 025c 9bbc 29c4 8c3c

fc1.weight f4 [120, 576]
0.124441996 -0.006316406 -0.043994743 0.05069988 0.09020166 -0.03663032 -0.009692231 -0.073722474
0.08328663 0.107779056 0.07977511 -0.009972429 -0.1188066 -0.072319254 0.14384158 0.015230884
-0.05548037 0.058654178 -0.04016291 -0.017551621 0.07164474 -0.13948703 -0.12769005 0.031088093
0.06399242 0.07087071 -0.0142721515 0.01941228 0.015610532 0.06904213 0.08603662 -0.017160011
-0.15893503 -0.17349023 -0.06296422 -0.06797166 -0.0024767395 0.013572313 0.005703203 -0.013370625
0.0016947906 -0.08514273 0.025336465 0.052709978 0.0301659 0.00016974966 0.08716476 -0.007593578
-0.005560376 -0.032457124 -0.004061817 -0.13554111 0.035727806 -0.0002876377 0.046795685 -0.053289425
-0.11376609 -0.03897125 -0.013362079 -0.0015580378 0.029355878 -0.043227743 -0.046604563 0.062552854
0.0050992314 0.029909946 0.11699231 0.062281035 0.082870446 0.055919744 0.03460915 -0.04813537
0.029051617 0.09682791 0.09222874 0.026552562 -0.08377004 -0.12614162 0.1081669 0.012129612
0.12092611 0.07151608 0.01655746 0.0044433773 -0.0144159375 -0.16875014 -0.040030085 -0.12667862
0.04092782 0.13204952 -0.09495666 -0.1505881 -0.008166192 -0.03135184 0.09754127 0.13153711
-0.075789824 -0.07146158 0.0343912 -0.02425953 -0.035549134 0.047760807 0.03188051 0.04760616
-0.034114785 -0.04233894 -0.026503116 0.0256022 0.11220808 0.14075223 0.16104253 0.11626433
0.06520341 0.012830369 0.052014746 -0.08531337 -0.07241282 -0.03633212 0.07307146 0.100162186
0.07961434 -0.12301003 -0.1104618 -0.025375314 0.0037881327 0.056225203 0.09900615 0.04808473
0.04941784 0.041346464 0.023766927 -0.0620198 0.105773136 0.0010912683 0.04725554 -0.0077801123
-0.029840639 -0.06881028 0.03037215 0.038931407 0.101079814 0.012969406 0.025611656 0.10767373
0.05863674 -0.0357961 -0.022724146 -0.008025719 0.022811249 0.029288432 0.03987815 -0.07169627
-0.042497773 0.05064975 0.02841882 0.08393641 -0.04752912 -0.02072253 0.0818674 0.0407744
-0.029601756 0.062108096 0.063712314 0.047087755 0.017677493 -0.008855614 -0.007458641 -0.056123633
0.08042635 0.09615404 0.047758304 -0.008196841 0.012403062 -0.04938038 0.045228988 0.061510656
0.013736544 -0.119138345 -0.08543223 -0.0056823296 -0.014325142 0.018337224 -0.03172916 -0.0032515824
-0.032300558 0.022203524 0.0013590939 0.039334845 -0.03793945 0.015206665 -0.034945436 -0.0016105026
-0.010026682 0.03296807 0.031754453 0.028739478 -0.007669773 -0.021284655 -0.031185433 0.023562316
0.012595069 0.028961312 0.011521805 0.03465597 -0.030781265 0.022750165 -0.025198456 0.013859179
0.01204947 0.023851257 -0.0036637671 -0.025869494 0.032152165 0.026850242 0.028476836 -0.026294062
0.09523168 0.013229745 -0.0565677 -0.015535568 -0.0064823297 0.056205858 0.012379105 -0.10666294
-0.0055225412 0.06056573 0.03742578 0.08386859 -0.05288985 -0.01828694 0.081793085 0.0018604272
0.064466536 0.08669727 0.010610418 0.13517389 0.111490965 -0.014040462 -0.016961712 -0.021763874
0.002535911 0.087034814 0.026461028 -0.06688381 -0.03458466 0.031170253 0.11655278 0.0952895
0.02369268 0.036629498 0.045022093 0.014981685 -0.0009682601 -0.015493676 -0.06608607 -0.006895859
00000000: 72db fe3d dbf9 cebb d533 34bd adaa 4f3d
00000010: a6bb b83d ad09 16bd 2acc 1ebc cffb 96bd
00000020: 2e92 aa3d 44bb dc3d 2261 a33d 6663 23bc
00000030: e050 f3bd 1e1c 94bd 354b 133e f58a 793c
00000040: 623f 63bd 5d3f 703d dd81 24bd 6bc8 8fbc
00000050: 7aba 923d b0d5 0ebe 2ec1 02be 75ac fe3c
00000060: 750e 833d aa24 913d bed5 69bc 8006 9f3c
00000070: 51c3 7f3c f665 8d3d f833 b03d 2793 8cbc
00000080: ddbf 22be 6ca7 31be 63f3 80bd ba34 8bbd
00000090: cb50 22bb 685e 5e3c efe1 ba3b 7710 5bbc
000000a0: bc23 de3a 505f aebd 6b8e cf3c 6be6 573d
000000b0: 7a1e f73c d4fe 3139 7083 b23d 8dd3 f8bb
000000c0: d133 b6bb c3f1 04bd fe18 85bb 4acb 0abe
000000d0: 5257 123d 14ce 96b9 d5ac 3f3d 0346 5abd
000000e0: 32fe e8bd 51a0 1fbd 9fec 5abc 1337 ccba
000000f0: bd7b f03c 930f 31bd 6de4 3ebd b61b 803d
00000100: 7417 a73b b405 f53c aa99 ef3d 661a 7f3d
00000110: fbb7 a93d 1a0c 653d 53c2 0d3d 9829 45bd
00000120: a8fd ed3c b64d c63d 6ce2 bc3d c284 d93c
00000130: a08f abbd 452b 01be 9c86 dd3d 48bb 463c
00000140: 1ca8 f73d 0677 923d 83a3 873c c099 913b
00000150: d330 6cbc d6cc 2cbe 96f6 23bd 0ab8 01be
00000160: eea3 273d fd37 073e a378 c2bd c433 1abe
00000170: 7ecb 05bc c96a 00bd b8c3 c73d aab1 063e
00000180: b237 9bbd 735a 92bd c9dd 0c3d ecbb c6bc
00000190: f89b 11bd d6a0 433d 2395 023d adfe 423d
000001a0: f2bb 0bbd 996b 2dbd 101d d9bc b4bb d13c
000001b0: 5acd e53d 5a21 103e 55e8 243e fe1b ee3d
000001c0: 5e89 853d 7836 523c 6a0d 553d c7b8 aebd
000001d0: 2c4d 94bd fdd0 14bd 7da6 953d d521 cd3d
000001e0: d80c a33d afec fbbd cc39 e2bd e4df cfbc
000001f0: 5242 783b 664c 663d bdc3 ca3d 7ef4 443d
00000200: 5c6a 4a3d e95a 293d dcb2 c23c 7908 7ebd
00000210: 969f d83d e308 8f3a 068f 413d 50f0 febb
00000220: 5b74 f4bc 67ec 8cbd 04cf f83c 8a76 1f3d
00000230: ef02 cf3d a27d 543c 89cf d13c 0b84 dc3d
00000240: 142d 703d ee9e 12bd fd27 babc 4e7e 03bc
00000250: a8de ba3c 4bee ef3c 4557 233d 7ed5 92bd
00000260: 2512 2ebd 1d76 4f3d 96ce e83c dae6 ab3d
00000270: e5ad 42bd 4cc2 a9bc 18aa a73d 0f03 273d
00000280: 627f f2bc 0f65 7e3d 9a7b 823d 17df 403d
00000290: 64d0 903c 2317 11bc 9e67 f4bb e5e1 65bd
000002a0: 92b6 a43d 69ec c43d 369e 433d 0b4c 06bc
000002b0: 3636 4b3c 1543 4abd 0842 393d 99f2 7b3d
000002c0: 3e0f 613c cefe f3bd 18f7 aebd d632 babb
000002d0: 00b4 6abc f237 963c 70f6 01bd 8018 55bb
000002e0: 974d 04bd 2ae4 b53c a023 b23a 931d 213d
000002f0: 6666 1bbd 6025 793c f222 0fbd 8017 d3ba
00000300: f446 24bc 8709 073d f510 023d 0e6f eb3c
00000310: b852 fbbb 285d aebc 9878 ffbc c205 c13c
00000320: 8c5b 4e3c 4640 ed3c f4c5 3c3c 6bf3 0d3d
00000330: fe28 fcbc 8e5e ba3c fe6c cebc 9c11 633c
00000340: 246b 453c b663 c33c d01b 70bb 43ec d3bc
00000350: fdb1 033d 0af5 db3c 4148 e93c a566 d7bc
00000360: d408 c33d 93c1 583c 88b3 67bd e588 7ebc
00000370: b969 d4bb 1d38 663d bbd1 4a3c 1972 dabd
00000380: 6ff6 b4bb c513 783d c64b 193d 4cc3 ab3d
00000390: 07a3 58bd 7ece 95bc 2283 a73d 94d9 f33a
000003a0: 0807 843d 578e b13d 52d7 2d3c 066b 0a3e
000003b0: 6055 e43d f709 66bc 4af3 8abc 274a b2bc
000003c0: 8731 263b 4f3f b23d ccc4 d83c 61fa 88bd
000003d0: a5a8 0dbd c258 ff3c 39b3 ee3d 2427 c33d
000003e0: 2717 c23c d008 163d 1669 383d be75 753c
000003f0: d6d2 7dba 30d9 7dbc 2258 87bd a8f6 e1bb

fc1.bias f4 [120]
0.14030005 -0.0478569 0.011098258 0.006306211 0.022773072 0.031004699 0.024974346 -0.026699405
-0.040963616 -0.023393614 -0.078827284 -0.034157667 -0.07335023 -0.00062544004 0.07770198 0.09067388
-0.009777219 -0.03894238 0.015381012 0.07635353 0.013957398 -0.012170387 0.07654589 0.011160266
-0.043008786 -0.026613252 0.096205406 -0.028625362 0.11596391 0.086503886 0.05651921 0.024266852
0.0123780845 -0.046911784 0.028305614 -0.035074644 0.07015912 0.003251331 0.120983705 0.059971437
0.027892506 0.06653126 -0.010742511 -0.045288883 -0.11137375 0.020256478 -0.02125074 -0.009814062
-0.024884263 -0.000607032 -0.039099146 0.009866563 0.15740162 0.13343905 0.110195905 0.018549431
0.027373368 0.02434384 0.004677697 0.008535968 0.014717626 -0.0041939854 0.011363516 0.03698957
-0.037416153 0.009928036 -0.026198102 -0.011005699 -0.06855425 -0.0154277235 -7.9840785e-05 0.032522243
0.08506408 0.060408667 0.21643569 -0.016853038 -0.006766499 0.09513472 0.044019327 0.0031099757
0.09956998 -0.07246426 0.014155085 0.05535498 -0.038435355 0.07788936 -0.035155453 -0.029040482
0.09224767 -0.019513931 0.047837045 0.0051663327 0.02184596 0.009531453 0.024002297 -0.028054256
0.08899892 0.04549382 -0.019089822 0.0051230844 0.015224673 -0.021344418 0.0154936565 0.09434144
0.02759563 0.11880278 0.025711464 -0.09838623 0.0042953272 0.06436587 0.016232464 -0.00044501966
0.043888222 0.08550894 0.0169894 0.07932007 -0.011901973 0.09275359 -0.081992626 -0.018053507
00000000: d1aa 0f3e 9905 44bd 78d5 353c 55a4 ce3b
00000010: 988e ba3c 91fd fd3c 0097 cc3c b6b8 dabc
00000020: 77c9 27bd f7a3 bfbc 3370 a1bd e9e8 0bbd
00000030: a538 96bd 92f4 23ba 3722 9f3d 3ab3 b93d
00000040: a130 20bc 0c82 1fbd a400 7c3c 3d5f 9c3d
00000050: 92ad 643c 4e66 47bc 17c4 9c3d 8cd9 363c
00000060: fb29 30bd 0904 dabc 5707 c53d bc7f eabc
00000070: 7d7e ed3d f328 b13d b080 673d 47cb c63c
00000080: 73cd 4a3c 9226 40bd 2de1 e73c 6eaa 0fbd
00000090: 96af 8f3d 4814 553b 4ec6 f73d 9ca4 753d
000000a0: d37e e43c 8b41 883d 5b01 30bc d680 39bd
000000b0: ec17 e4bd eaf0 a53c 0816 aebc 29cb 20bc
000000c0: 15da cbbc 3a21 1fba 6d26 20bd 5da7 213c
000000d0: e42d 213e 3fa4 083e 64ae e13d faf4 973c
000000e0: 1d3e e03c bc6c c73c 5e47 993b 72da 0b3c
000000f0: 3322 713c b36d 89bb 0a2e 3a3c 6082 173d
00000100: ae41 19bd 33a9 223c 679d d6bc 3f51 34bc
00000110: 2c66 8cbd 90c4 7cbc 3270 a7b8 0b36 053d
00000120: 1436 ae3d 146f 773d 51a1 5d3e 620f 8abc
00000130: 82b9 ddbb fed5 c23d 9c4d 343d bcd0 4b3b
00000140: 58eb cb3d 2468 94bd bbea 673c e7bb 623d
00000150: 646e 1dbd 7584 9f3d 2aff 0fbd 4ee6 edbc
00000160: 59ec bc3d aedb 9fbc c7f0 433d 574a a93b
00000170: 4cf6 b23c d029 1c3c 77a0 c43c 0ad2 e5bc
00000180: 1145 b63d ba57 3a3d 4262 9cbc 8cdf a73b
00000190: e870 793c 7dda aebc 1bd9 7d3c 1636 c13d
000001a0: 3b10 e23c df4e f33d d9a0 d23c b87e c9bd
000001b0: d1bf 8c3b 41d2 833d f2f9 843c 8751 e9b9
000001c0: 23c4 333d 501f af3d 5b2d 8b3c 9072 a23d
000001d0: 7e00 43bc 98f5 bd3d c0eb a7bd f3e4 93bc

fc2.weight f4 [84, 120]
-0.15203278 0.06803251 0.038454283 -0.09037992 -0.102926865 0.023658194 -0.060645353 0.0327145
-0.08559535 -0.12731646 -0.14023384 -0.06268441 -0.11350796 -0.16235703 -0.0019061533 -0.17859194
0.052027214 -0.040183857 0.023955226 0.10412382 -0.19551341 0.088741444 0.057700206 0.021146521
0.081609175 0.05591606 -0.07277776 -0.00335937 0.04702562 -0.065484546 0.037607953 0.07353587
0.038383167 -0.034951355 0.0034384388 0.008453053 -0.13571551 -0.16965686 -0.046584576 -0.017491993
0.0367975 -0.048155747 -0.036700677 0.03401807 0.035639573 -0.040239103 0.036608968 0.015902823
0.008206504 0.00851076 0.017509831 -0.089370556 0.057936437 -0.07054064 0.059017304 -0.088576466
0.05104288 -0.08619329 0.007677282 -0.016731782 0.04394445 0.11408265 -0.053101677 -0.059195213
-0.0074083954 0.05517724 0.045163304 -0.02514876 0.043845516 0.05929309 -0.031132208 0.06459266
-0.055697497 0.09510341 0.036882717 0.0598537 0.07630196 -0.12265674 -0.087316245 -0.08657154
-0.016322087 -0.007726867 -0.0006893641 -0.13614969 0.082611725 -0.12215098 0.09187654 0.010099368
0.010659186 -0.04437907 0.0093617765 -0.03342022 -0.049703453 -0.01608016 0.05526042 -0.09132797
-0.015304585 0.08596232 -0.016345862 0.05997309 0.019703459 0.008629341 -0.047006413 -0.18107474
-0.028491093 -0.06699715 0.044814993 0.078048766 0.0904486 0.17882486 -0.048743285 -0.04890349
0.016767679 -0.20393328 -0.06267657 -0.06640369 0.007679617 0.08547949 -0.054088883 -0.04202974
-0.004337959 0.051515974 0.05689452 -0.028420884 0.047245335 -0.07576871 0.04596339 0.022387432
0.018940635 0.08548093 0.11852389 -0.017764956 -0.06739067 0.0952248 0.039774112 -0.019158158
-0.047823034 -0.0127945 0.05853867 -0.008138427 0.15758651 0.1139579 0.08369317 0.05763512
-0.07810365 -0.043871026 0.085925035 -0.02687844 0.16552167 0.12799917 0.09028073 0.037121467
0.11292993 0.07877514 -0.047715664 0.0009195518 -0.008361616 0.06593924 0.011076706 -0.01763465
-0.075433224 -0.061645754 0.044253685 -0.08379825 0.08544924 -0.018944655 0.043395508 -0.06832819
0.045110352 -0.016905239 0.03196394 -0.0049851183 0.10146159 0.08083008 0.105693504 0.09933703
-0.123708 -0.0502813 0.028452033 0.05306797 -0.071771264 0.11880538 0.007031401 0.14639993
0.094110906 0.07057211 0.03798765 0.0021053927 -0.05280388 -0.02020745 -0.018773787 0.12200965
0.05787168 0.06967486 0.0037186837 -0.08315287 -0.019668555 0.09838387 -0.051301315 0.13585718
-0.01164009 -0.031988975 0.06460675 0.048502617 0.0891323 0.067238174 0.124505036 -0.008860742
-0.028440597 -0.026276264 0.032964922 0.029692706 0.03108035 0.08934948 -0.035125896 -0.04978217
0.08161405 0.1254689 0.05172932 0.034970626 -0.081552155 0.07577209 -0.032258503 -0.061582968
-0.051233247 -0.044414353 -0.062982924 -0.053159554 0.14059833 0.16420615 0.080548905 -0.005312937
0.13671531 -0.021959659 -0.056508012 0.1220721 -0.10423126 0.20034356 -0.08735082 0.056086674
0.26054624 0.031049855 0.048922837 -0.07697626 0.054038662 0.038853575 0.03943599 -0.014411375
-0.030003335 0.11600352 -0.11314493 -0.019909773 -0.116903566 -0.009418955 0.13055874 0.09355794
00000000: 7bae 1bbe a154 8b3d 3d82 1d3d 1c19 b9bd
00000010: 52cb d2bd d4ce c13c 4367 78bd a4ff 053d
00000020: 9d4c afbd 3f5f 02be 7699 0fbe af60 80bd
00000030: dd76 e8bd ec40 26be e4d7 f9ba cee0 36be
00000040: 7d1a 553d d497 24bd c03d c43c df3e d53d
00000050: ab34 48be 13be b53d 0d57 6c3d 783b ad3c
00000060: b622 a73d 3d08 653d 820c 95bd e028 5cbb
00000070: f09d 403d c31c 86bd cc0a 1a3d f999 963d
00000080: ab37 1d3d 2729 0fbd 6e57 613b ad7e 0a3c
00000090: 02f9 0abe 87ba 2dbe 78cf 3ebd 5e4b 8fbc
000000a0: fab8 163d f63e 45bd 7353 16bd 8856 0b3d
000000b0: cdfa 113d c2d1 24bd 49f3 153d a346 823c
000000c0: 9374 063c b770 0b3c c770 8f3c e907 b7bd
000000d0: c24e 6d3d 9c77 90bd 21bc 713d 9467 b5bd
000000e0: 5712 513d 1c86 b0bd b691 fb3b 1711 89bc
000000f0: 18ff 333d 2aa4 e93d 2581 59bd ae76 72bd
00000100: 20c2 f2bb 8801 623d 28fd 383d c604 cebc
00000110: 5b97 333d 50dd 723d f908 ffbc 2849 843d
00000120: 0f23 64bd 94c5 c23d 5512 173d 2729 753d
00000130: 3444 9c3d 7533 fbbd dcd2 b2bd 6b4c b1bd
00000140: e6b5 85bc a931 fdbb 71b6 34ba d36a 0bbe
00000150: 5630 a93d 4b2a fabd c429 bc3d d277 253c
00000160: dea3 2e3c d4c6 35bd 2362 193c a4e3 08bd
00000170: d995 4bbd 8aba 83bc c058 623d 290a bbbd
00000180: 15c0 7abc 030d b03d c2e7 85bc 58a6 753d
00000190: 2669 a13c 1462 0d3c cc89 40bd a86b 39be
000001a0: 2766 e9bc cd35 89bd ed8f 373d 08d8 9f3d
000001b0: 1e3d b93d dd1d 373e 0aa7 47bd 074f 48bd
000001c0: 5f5c 893c e3d3 50be 935c 80bd a8fe 87bd
000001d0: 4ca5 fb3b df0f af3d 4e8c 5dbd 6027 2cbd
000001e0: 7025 8ebb 6a02 533d 3a0a 693d ead2 e8bc
000001f0: 5384 413d a02c 9bbd 1c44 3c3d d965 b73c
00000200: 6429 9b3c a010 af3d a7bc f23d d087 91bc
00000210: 1f04 8abd 3805 c33d 2eea 223d 92f1 9cbc
00000220: 16e2 43bd 06a0 51bc 3fc6 6f3d 0957 05bc
00000230: 5c5e 213e c262 e93d 5367 ab3d ce12 6c3d
00000240: cef4 9fbd 1bb2 33bd 77f9 af3d 2d30 dcbc
00000250: 837e 293e 3712 033e 1ae5 b83d ae0c 183d
00000260: cf47 e73d dc54 a13d 8071 43bd 140e 713a
00000270: 29ff 08bc 270b 873d 137b 353c 8b76 90bc
00000280: bc7c 9abd 4280 7cbd 5a43 353d 6b9e abbd
00000290: 0300 af3d d231 9bbc 7dbf 313d a6ef 8bbd
000002a0: a2c5 383d db7c 8abc 9fec 023d 345a a3bb
000002b0: 18cb cf3d 3e8a a53d d675 d83d 3671 cb3d
000002c0: 9f5a fdbd c4f3 4dbd 3d14 e93c cd5d 593d
000002d0: d0fc 92bd 3c50 f33d ab67 e63b dde9 153e
000002e0: 38bd c03d 1c88 903d f098 1b3d a1fa 093b
000002f0: e248 58bd 188a a5bc 7ccb 99bc 32e0 f93d
00000300: db0a 6d3d b1b1 8e3d 29b5 733b 0d4c aabd
00000310: f31f a1bc 7c7d c93d 5421 52bd 251e 0b3e
00000320: 13b6 3ebc df06 03bd 8b50 843d aeaa 463d
00000330: ff8a b63d 2bb4 893d 7ffc fe3d a52c 11bc
00000340: 41fc e8bc 5241 d7bc 3a06 073d 1e3e f33c
00000350: 389c fe3c dcfc b63d 2ce0 0fbd 64e8 4bbd
00000360: 4425 a73d eb7a 003e 20e2 533d 5c3d 0f3d
00000370: d104 a7bd 662e 9b3d 7e21 04bd 6c3e 7cbd
00000380: f4d9 51bd d3eb 35bd 31fd 80bd d5bd 59bd
00000390: 02f9 0f3e a825 283e d3f6 a43d 2518 aebb
000003a0: 19ff 0b3e bee4 b3bc f274 67bd f000 fa3d
000003b0: 3377 d5bd dd26 4d3e fde4 b2bd 24bb 653d
000003c0: 5166 853e 445c fe3c 5063 483d bba5 9dbd
000003d0: a557 5d3d ed24 1f3d a287 213d b01d 6cbc
000003e0: 8ec9 f5bc 4193 ed3d 87b8 e7bd d219 a3bc
000003f0: 236b efbd f651 1abc 31b1 053e 4e9b bf3d

fc2.bias f4 [84]
-0.013892338 0.04633757 0.120809406 -0.0391022 -0.028521407 0.050705712 -0.04646407 0.026981337
0.013781287 -0.08972797 -0.08013646 0.078761965 0.10132506 -0.052441735 0.07312924 -0.02658176
-0.02130511 -0.064135194 -0.038526744 0.094223626 -0.012889614 0.010510865 0.059688233 -0.037271116
-0.06562201 0.04801437 0.008580939 -0.036323793 0.08512993 0.05702578 -0.0713774 0.0071825585
-0.09974273 0.059079103 -0.10490501 0.038228236 -0.08952416 -0.1061441 -0.016290195 -0.017995374
0.043049857 0.11983524 0.027037894 -0.0760119 -0.014023672 -0.056553114 -0.041743025 0.06480109
0.06594178 0.015440724 -0.039988358 0.14981915 -0.100564316 -0.091147654 0.04175292 0.044505667
0.07812112 0.014483693 0.1413519 -0.04964475 0.05456926 -0.007543018 0.095955394 0.11540081
0.11257343 0.058004912 -0.030647792 -0.005436699 0.015166165 -0.03402414 0.08233074 0.0028031813
0.0029045201 -0.030621355 0.14757256 -0.083176024 0.04201489 -0.13423961 -0.06261954 0.03747882
-0.11088603 0.057667445 0.055533253 -0.0086102495
00000000: b09c 63bc 77cc 3d3d ec6a f73d a129 20bd
00000010: baa5 e9bc cbb0 4f3d 1c51 3ebd f707 dd3c
00000020: e8ca 613c 4cc3 b7bd 961e a4bd f44d a13d
00000030: 8383 cf3d 25cd 56bd c8c4 953d fec1 d9bc
00000040: 0e88 aebc 5059 83bd 38ce 1dbd 51f8 c03d
00000050: f62e 53bc c335 2c3c a67b 743d 99a9 18bd
00000060: d564 86bd b7aa 443d 1197 0c3c 42c8 14bd
00000070: 9a58 ae3d dd93 693d 502e 92bd ab5b eb3b
00000080: eb45 ccbd eefc 713d 70d8 d6bd 3695 1c3d
00000090: 7158 b7bd 1462 d9bd 0473 85bc 096b 93bc
000000a0: 0c55 303d 2e6c f53d 937e dd3c 21ac 9bbd
000000b0: 8bc3 65bc 3da4 67bd bcfa 2abd 6fb6 843d
000000c0: 7c0c 873d 17fb 7c3c d5ca 23bd 316a 193e
000000d0: aaf4 cdbd 9fab babd 1c05 2b3d 934b 363d
000000e0: f7fd 9f3d 034d 6d3c 8dbe 103e 4b58 4bbd
000000f0: 0484 5f3d 6c2b f7bb 4384 c43d 4357 ec3d
00000100: e68c e63d 8f96 6d3d 1411 fbbc 5626 b2bb
00000110: 827b 783c e65c 0bbd 059d a83d 94b5 373b
00000120: c359 3e3b a3d9 fabc 431d 173e 3158 aabd
00000130: ce17 2c3d 1c76 09be ac3e 80bd 6483 193d
00000140: 3718 e3bd b334 6c3d d676 633d 0112 0dbc

fc3.weight f4 [12, 84]
-0.04931295 0.13923356 0.04072622 -0.0037801801 -0.02324668 0.078969166 -0.11794507 -0.003795694
-0.059704483 0.04979651 -0.03260763 0.09552922 0.015709577 0.09073191 0.0035936267 0.13856092
-0.030176103 -0.040220547 0.027690813 -0.12067323 -0.08358882 0.07839392 -0.0068137827 0.0019048887
0.009489705 -0.013556446 -0.052982513 0.10070695 0.116068654 -0.084791236 0.061256345 0.052520875
-0.07460469 -0.044619687 -0.010976705 0.118344665 -0.0331161 -0.09553121 0.034875557 -0.0034502614
0.07046444 0.02104184 0.13855486 -0.06409494 -0.015976025 -0.003573261 0.12253962 0.050105687
0.13450484 -0.057109915 -0.12673742 0.016398424 -0.156775 -0.056114495 -0.060955025 0.06254167
-0.031459603 0.09719607 -0.058825295 -0.11298769 -0.14527225 -0.1420222 0.060516454 0.0982117
0.077445306 -0.096063696 -0.007107347 0.062119808 0.110457204 -0.08444723 0.08724587 0.0127754295
0.052708387 -0.105352506 0.0692582 0.012301474 -0.07628478 -0.016775895 0.0883704 0.11472347
0.0005525994 -0.06693187 0.033066265 -0.06693174 -0.19850111 0.011751376 0.086905435 0.08480993
-0.019399203 -0.21008524 -0.081648715 0.11025726 -0.25043613 0.09999481 0.05475063 -0.072873615
0.02809777 0.02827052 -0.014402532 -0.05334978 -0.26089182 -0.022823159 -0.05887454 -0.0669315
-0.18741152 -0.20520207 -0.022369578 0.029867668 -0.1357389 0.071020305 -0.08544698 -0.08219327
0.005479598 -0.069167264 -0.31696984 0.057631668 0.05919664 -0.10916042 0.08988971 -0.12771459
0.005080418 0.03392135 -0.24375796 -0.04548932 0.08938277 0.11340587 -0.05423982 0.017309966
0.047865637 -0.1754683 -0.19257051 -0.08912929 0.107624695 -0.11003915 0.052589625 0.09389324
-0.11147777 -0.094140545 -0.049198415 -0.078258224 -0.07843106 0.0444751 0.067449756 -0.26076826
0.0011036232 0.12542868 -0.047625236 0.14382423 0.06048247 -0.09953325 -0.05373532 0.043408297
0.052738294 0.005517898 -0.010760001 -0.1190113 -0.18814383 0.05802314 0.028266367 -0.16074313
0.07971672 0.05292201 -0.01915463 0.11049919 -0.06317031 0.040484603 0.1448003 0.055372145
-0.27906096 0.11084331 -0.043212585 -0.07593597 0.014464762 -0.07086087 0.009123073 -0.28099993
0.06458715 -0.11039681 -0.056416865 0.07296024 0.018676966 -0.09243873 0.014808813 0.093279205
0.14545152 -0.04906298 -0.07347306 -0.2252668 0.19920571 -0.04819518 -0.041084673 0.12840071
-0.11693797 0.09526387 0.034125328 -0.0033235631 -0.23871179 -0.02143626 0.09187532 0.0065882592
0.059500206 0.058130894 -0.12772553 -0.028741408 -0.03012174 -0.43085966 -0.11878935 0.05439962
-0.08967744 -0.25309455 -0.0011674032 -0.044240937 0.07050173 -0.051932737 -0.056326285 0.08681666
0.052723445 0.08991185 -0.11683421 -0.012529737 0.038667608 -0.036165856 0.07066051 0.045178644
0.028517414 -0.08031708 0.059295606 -0.0958558 -0.12836237 -0.17113125 0.041680284 -0.19998437
-0.2925785 -0.10742602 0.07900569 -0.017751979 0.07808631 0.13570832 0.016322967 0.0101767015
-0.19822001 -0.035080932 0.025148595 -0.21727495 -0.29895127 -0.14481287 -0.0054495893 -0.054903254
0.058635417 -0.05733709 0.081024855 -0.0017396336 -0.06669824 0.13710396 -0.07514357 0.0895144
00000000: 60fc 49bd 3e93 0e3e 89d0 263d e6bc 77bb
00000010: d26f bebc 96ba a13d 2f8d f1bd 2ec1 78bb
00000020: b08c 74bd 6df7 4b3d 948f 05bd d3a4 c33d
00000030: 5fb1 803c a7d1 b93d 0d83 6b3b eae2 0d3e
00000040: e033 f7bc 4dbe 24bd d8d7 e23c 8723 f7bd
00000050: 9e30 abbd fe8c a03d 2746 dfbb 75ad f93a
00000060: b57a 1b3c db1b 5ebc 3104 59bd 723f ce3d
00000070: 67b5 ed3d 07a7 adbd efe7 7a3d 2120 573d
00000080: 58ca 98bd 22c3 36bd a3d7 33bc b05e f23d
00000090: bfa4 07bd dea5 c3bd acd9 0e3d c81d 62bb
000000a0: a94f 903d f05f ac3c 53e1 0d3e 3544 83bd
000000b0: 27e0 82bc 5f2d 6abb 0df6 fa3d 9f3b 4d3d
000000c0: a3bb 093e 16ec 69bd 74c7 01be fd55 863c
000000d0: a089 20be 50d8 65bd faab 79bd d915 803d
000000e0: c9db 00bd bc0e c73d cbf2 70bd 1766 e7bd
000000f0: 40c2 14be 456e 11be 1ae0 773d 3723 c93d
00000100: a59b 9e3d 0bbd c4bd bfe4 e8bb 5771 7e3d
00000110: 6337 e23d abf2 acbd f6ad b23d 0950 513c
00000120: c0e4 573d 0ec3 d7bd 3ed7 8d3d 1f8c 493c
00000130: 323b 9cbd 9a6d 89bc 8afb b43d 23f4 ea3d
00000140: 51dc 103a 9413 89bd 7e70 073d 8213 89bd
00000150: e043 4bbe d888 403c 7afb b13d d4b0 ad3d
00000160: 14eb 9ebc 9620 57be 7137 a7bd 8fce e13d
00000170: 2a39 80be 14ca cc3d 3242 603d c33e 95bd
00000180: 4b2d e63c 9497 e73c 99f8 6bbc 4d85 5abd
00000190: 9d93 85be a2f7 babc 6e26 71bd 6213 89bd
000001a0: cee8 3fbe 7e20 52be 6840 b7bc 0aad f43c
000001b0: 23ff 0abe 1873 913d d4fe aebd f254 a8bd
000001c0: 338e b33b 91a7 8dbd df49 a2be 2f0f 6c3d
000001d0: 2d78 723d 808f dfbd 1918 b83d 9dc7 02be
000001e0: a379 a63b 1df1 0a3d b09b 79be 0253 3abd
000001f0: 500e b73d 5641 e83d 932a 5ebd a1cd 8d3c
00000200: c20e 443d f6ad 33be 3431 45be 6b89 b6bd
00000210: 566a dc3d 355c e1bd 3868 573d 194b c03d
00000220: 754e e4bd c2cc c0bd 4784 49bd d945 a0bd
00000230: 77a0 a0bd 862b 363d 1923 8a3d 6b83 85be
00000240: 73a7 903a 6070 003e ae12 43bd a946 133e
00000250: 77bc 773d 17d8 cbbd 9119 5cbd e6cc 313d
00000260: 1c04 583d 7ccf b43b b74a 30bc 32bc f3bd
00000270: c7a8 40be aca9 6d3d de8e e73c d999 24be
00000280: 8542 a33d c0c4 583d 2cea 9cbc 664d e23d
00000290: 6f5f 81bd 2fd3 253d 8846 143e e7cd 623d
000002a0: 14e1 8ebe d101 e33d aeff 30bd 5184 9bbd
000002b0: 9cfd 6c3c 811f 91bd f178 153c 39df 8fbe
000002c0: 4546 843d b917 e2bd 5f15 67bd 2e6c 953d
000002d0: 7000 993c 8450 bdbd aaa0 723c 2b09 bf3d
000002e0: 3ef1 143e 43f6 48bd 0b79 96bd 57ac 66be
000002f0: 95fc 4b3e 4f68 45bd 6748 28bd 7a7b 033e
00000300: 2d7d efbd b419 c33d 00c7 0b3d 23d0 59bb
00000310: dd70 74be 189b afbc 2129 bc3d 53e2 d73b
00000320: 7db6 733d a91a 6e3d 7bca 02be 1a73 ebbc
00000330: dec1 f6bc a399 dcbe d547 f3bd 23d2 5e3d
00000340: cea8 b7bd 9c95 81be 8d03 99ba fc35 35bd
00000350: 3663 903d 6cb7 54bd 64b6 66bd efcc b13d
00000360: 8af4 573d b423 b83d c646 efbd 8749 4dbc
00000370: ed61 1e3d a622 14bd 75b6 903d 3e0d 393d
00000380: 5a9d e93c 487d a4bd f3df 723d 0c50 c4bd
00000390: 6d71 03be 083d 2fbe f2b8 2a3d b4c8 4cbe
000003a0: d9cc 95be 2c02 dcbd bccd a13d 996c 91bc
000003b0: b7eb 9f3d 1ff7 0a3e beb7 853c 2ebc 263c
000003c0: 30fa 4abe 06b1 0fbd 6d04 ce3c 537d 5ebe
000003d0: 2410 99be d349 14be 7892 b2bb 3ce2 60bd
000003e0: b12b 703d 4cda 6abd 5cf0 a53d 6b04 e4ba
000003f0: 1699 88bd fb64 0c3e dfe4 99bd 5353 b73d

fc3.bias f4 [12]
0.061108846 0.0255761 -0.045545645 -0.12723477 -0.05991139 -0.082955524 0.14194784 0.030098164
-0.034142535 -0.062840834 0.05955596 0.089615494
00000000: 454d 7a3d f884 d13c 128e 3abd d549 02be
00000010: a565 75bd 96e4 a9bd c65a 113e 6d90 f63c
00000020: 0bd9 0bbd b2b2 80bd f3f0 733d 5488 b73d
